output/model_1/topic_embeddings.safetensors (safetensors, 86104 bytes, 1 tensors)

topic_embeddings f4 [28, 768]
0	0x3c9ec8ce	0.01938286
1	0x3c8ad3db	0.016946724
2	0xbc8e4545	-0.017367015
3	0x3c9162f2	0.017747376
4	0xbca2b416	-0.019861262
5	0x3b41b588	0.0029557664
6	0xba0a8bbf	-0.0005285106
7	0x3c0fdf28	0.008781232
8	0xbc8f33ac	-0.017480694
9	0xbcac6f00	-0.021049023
10	0x3a958dd6	0.0011410068
11	0xbcaa86a6	-0.020816159
12	0x3c90cabc	0.017674796
13	0xbb08dc79	-0.0020883365
14	0x3c009dae	0.007850094
15	0xbd10d808	-0.035362273
16	0x3cdbb422	0.026819292
17	0x3b66ed0e	0.003523651
18	0x3b7eb237	0.0038863549
19	0x3a00b5e2	0.0004909915
20	0x3ba5c07e	0.0050583472
21	0x3c0787c0	0.008272111
22	0xbc318ee9	-0.010837295
23	0x3c82d097	0.015968604
24	0xbba3241c	-0.00497867
25	0xbc403a4e	-0.011732651
26	0x3b6b4068	0.0035896543
27	0xbb79138d	-0.0038006038
28	0x3bf91dc4	0.0076024253
29	0xbc52f92f	-0.012876793
30	0xbc9f932e	-0.01947936
31	0x3caaada8	0.020834759
32	0xbc21107a	-0.0098305885
33	0x3c11707d	0.008876917
34	0x35ab3235	1.2755105e-06
35	0xbd04f2a6	-0.03245797
36	0xbc60ce37	-0.01372104
37	0xbc0f7d38	-0.008757882
38	0xbb2d37af	-0.0026430895
39	0x3baf6ddc	0.0053536724
40	0x3cc6a6c6	0.024249446
41	0x3a408b61	0.0007344988
42	0xba167f6f	-0.0005741035
43	0xbbbea5b9	-0.0058180955
44	0xbc9472a6	-0.018121075
45	0xbb838bc0	-0.004014462
46	0x3d12ec38	0.035869807
47	0x3c2bacca	0.010478208
48	0x3c60c145	0.013717954
49	0x3cca7547	0.024714125
50	0xbb3acd35	-0.002850366
51	0xbcef854b	-0.029238364
52	0xbc0c92e3	-0.008579942
53	0xbaefceff	-0.0018295943
54	0x3b26e693	0.0025467023
55	0xbb7bca61	-0.0038420188
56	0x3c268fcc	0.01016612
57	0x3b09f38f	0.0021049713
58	0x3c8365e7	0.016039802
59	0xbb835c2d	-0.004008791
60	0xbc3869fb	-0.011255736
61	0x3c3d4c38	0.0115538165
62	0xbc67423c	-0.014114913
63	0xbbc62e46	-0.0060479967
64	0x3b8061e9	0.003917922
65	0x3bc29b53	0.0059389262
66	0xbbcd5866	-0.0062666414
67	0x39cb0858	0.00038725394
68	0x3bba9f50	0.005695261
69	0x3c772652	0.01508482
70	0x3cdd763d	0.02703392
71	0xbc0b932e	-0.008518977
72	0xbb6035c1	-0.0034211727
73	0x3c24c41e	0.010056524
74	0xbc235a97	-0.009970329
75	0x3ca590cd	0.020210648
76	0xbcb4490f	-0.022007493
77	0x3b7284ed	0.00370055
78	0xbc943258	-0.018090412
79	0x3be6161d	0.007021679
80	0x3caaaa75	0.020833233
81	0x3af275a4	0.0018498194
82	0xbbf40a4c	-0.0074475165
83	0x3a8afebe	0.0010604484
84	0xbb1dc766	-0.002407515
85	0x3d19f34b	0.037585538
86	0x3c0eff7f	0.008727907
87	0xbcc2033e	-0.023683187
88	0xbbd3b3c3	-0.0064606383
89	0xbb327692	-0.0027231318
90	0x3a94a88b	0.0011341734
91	0xbc8dec17	-0.01732449
92	0x3c3edae0	0.011648864
93	0x3c20e23e	0.009819565
94	0x3baceccc	0.005277252
95	0x3c420654	0.011842329
96	0xbb8f3d4b	-0.0043713204
97	0xbc8e34b0	-0.017359108
98	0x3bfeee9f	0.0077799107
99	0xbd3f098b	-0.04663996
100	0x3bea50df	0.007150754
101	0x3c1947b2	0.009355472
102	0xbbfe05bb	-0.007752148
103	0x3c8291c8	0.015938655
104	0xbadd55a8	-0.001688649
105	0x3c0ae12c	0.008476537
106	0x3bc30da8	0.0059525557
107	0x3aca014d	0.0015411765
108	0xbce5d43d	-0.028055305
109	0x3c8b87f2	0.017032597
110	0xbd0053b6	-0.031329833
111	0xbc200d8d	-0.009768856
112	0xbcdb2907	-0.026752962
113	0x3cd0f317	0.02550654
114	0xba791591	-0.000950181
115	0x3a5c2063	0.000839716
116	0xbd1fe74a	-0.039038934
117	0x3980d9db	0.00024576377
118	0x3b810591	0.003937431
119	0x3aaebcf6	0.0013331461
120	0xbc8b58e7	-0.017010165
121	0xbc8696b9	-0.016429292
122	0xbccde19e	-0.025131997
123	0x3bc3ff97	0.0059813964
124	0xbc7af443	-0.015317026
125	0x3b9ad1fd	0.0047247396
126	0xbcc8035b	-0.024415663
127	0x3c6a83ec	0.014313679
128	0xbcf60121	-0.030029835
129	0xbcbd5351	-0.023111017
130	0x3c2f1c17	0.0106878495
131	0x3c6db4d8	0.014508449
132	0x3c0ec6f6	0.008714428
133	0xbc1d0bf1	-0.009585367
134	0xbc2b2d77	-0.010447851
135	0x3cdf2957	0.027241392
136	0x3b294be7	0.0025832595
137	0xbc4861e1	-0.012230367
138	0xbca4a12d	-0.020096386
139	0xbca51490	-0.020151407
140	0xbc82cb26	-0.01596601
141	0xbc67d725	-0.014150416
142	0xbbee4834	-0.007271791
143	0xbd1b1977	-0.037866082
144	0xbbb3d41c	-0.005487932
145	0x3bbfa75a	0.0058488073
146	0x3b09c729	0.002102325
147	0xbccaa182	-0.024735216
148	0xb8f372a2	-0.00011608495
149	0x3ae06ec4	0.0017122854
150	0xbc7d369f	-0.015454917
151	0x3d042368	0.03226033
152	0xbc082413	-0.008309382
153	0xbb679441	-0.003533617
154	0x39ea2e85	0.00044666618
155	0x3a278a62	0.0006391165
156	0x3ca66f0c	0.020316623
157	0x3ce1c003	0.027557379
158	0x3b9dad7e	0.0048119416
159	0xbbcfcb38	-0.0063413642
160	0x3cef37d9	0.029201435
161	0xba58e28a	-0.0008273503
162	0x387d669e	6.041547e-05
163	0x3bf70bb0	0.007539235
164	0xbc3c286f	-0.0114842495
165	0xbbc86f9b	-0.00611682
166	0xbc6a96ee	-0.014318211
167	0xbbcfcf1f	-0.0063418294
168	0xbb5627ab	-0.0032677453
169	0x3b9f3304	0.0048583765
170	0xbb470822	-0.0030369838
171	0x3ce5cce6	0.028051805
172	0xbc25fb42	-0.010130705
173	0x3c5cf10f	0.013485207
174	0x3c902e91	0.01760033
175	0x3d36595c	0.044518813
176	0x3c8a1a7c	0.016858332
177	0x3bf69421	0.0075249826
178	0x3c7863b0	0.015160486
179	0x3c0f38dc	0.008741584
180	0x3c077751	0.008268193
181	0x3ccfd02a	0.025367815
182	0x3c265575	0.0101522105
183	0xbba10375	-0.004913742
184	0xbbb3b2a6	-0.005483943
185	0x3bede8d2	0.0072604204
186	0xbc2f5f84	-0.010703925
187	0x3c6288fb	0.013826604
188	0xbbb6088c	-0.005555218
189	0xbc9afc5b	-0.01891916
190	0xbc8b959e	-0.017039116
191	0x3bd167d5	0.0063905516
192	0x3b0bb768	0.0021319035
193	0xbc8b2cbc	-0.016989104
194	0x3ce0c7b9	0.027438985
195	0x3ba1efb7	0.0049419063
196	0xbb58d27b	-0.003308444
197	0x3b04c80e	0.0020260843
198	0x3c545e8b	0.012961994
199	0xbccc4fc8	-0.024940386
200	0x3b945141	0.004526288
201	0xbbc67401	-0.006056309
202	0x3bf977a1	0.007613138
203	0x3d06ce26	0.032911442
204	0x3c233220	0.009960681
205	0xbc506998	-0.012720488
206	0x3b6989d2	0.0035635126
207	0x38ea0ebe	0.000111607354
208	0xbb5568bc	-0.0032563647
209	0x3d01829a	0.031618692
210	0x3bf6f277	0.0075362283
211	0xbc0507ae	-0.008119507
212	0xbbade7a7	-0.005307156
213	0xbc9693da	-0.018381048
214	0x3b57b95d	0.0032916882
215	0x3c931e5c	0.017958812
216	0x3c1ea0e1	0.009681911
217	0xbb656e25	-0.0035008278
218	0xbcf0ef43	-0.029410964
219	0x3cac8c6b	0.02106305
220	0x3b5188dc	0.0031972444
221	0xbb8cc36b	-0.0042957566
222	0xbbf542a7	-0.007484752
223	0x3c095496	0.008381983
224	0x3c25ac46	0.010111874
225	0xbbc5e503	-0.006039263
226	0xbc06c324	-0.008225236
227	0x3c4b3dcb	0.012404869
228	0x3c65a4d5	0.01401635
229	0x3cabf9cf	0.020993141
230	0xbc3d9604	-0.011571411
231	0x3c9533ae	0.01821312
232	0x3c4f39fb	0.012648101
233	0xbc81e306	-0.015855324
234	0x3a37f516	0.00070174166
235	0x3cf12d25	0.029440472
236	0xbb8ab05d	-0.00423245
237	0xbbd79494	-0.006578991
238	0x3c944d0b	0.018103143
239	0xbd2dafc7	-0.042403962
240	0x3aa6ee29	0.0012735772
241	0xbc8adee9	-0.016951995
242	0x3c6b8b8d	0.014376533
243	0xbc857595	-0.016291419
244	0x3c991865	0.01868839
245	0xbcbed07b	-0.02329277
246	0x3d1c9c24	0.038234845
247	0xbc4879d8	-0.012236081
248	0x3ca323fc	0.01991462
249	0xbc74790f	-0.014921441
250	0x3ae25711	0.001726838
251	0xbc69fc3a	-0.014281327
252	0x3ce30133	0.027710533
253	0x3c066409	0.008202561
254	0x3ccde132	0.025131796
255	0xbc45749e	-0.0120517295
