output/model_3/topic_embeddings.safetensors (safetensors, 86104 bytes, 1 tensors)

topic_embeddings f4 [28, 768]
000000 a0 55 78 3c 9c dd 10 3d 3b 71 60 bc 6a 81 d7 bc
       0.015157133 0.035367593 -0.013698871 -0.026306827
000010 1f 51 00 3d 5b 05 1e 3d 24 a3 cc 3a 44 9a de 3c
       0.031327363 0.038579326 0.0015612585 0.027173169
000020 82 65 31 3d 3b 04 8e bb 7b 95 8b 3c 9e 14 c5 3a
       0.043309696 -0.0043340004 0.017039051 0.0015036052
000030 b6 cd ad 3c 64 b3 8f 3c 1c 84 a0 3c b3 6a 92 bc
       0.021216255 0.017541595 0.019594245 -0.017873144
000040 e6 d4 c1 3c 1a ad 8d bd 66 9c 9f bc 8f 73 a3 bc
       0.023661088 -0.06917782 -0.019483756 -0.019952564
000050 64 c1 a2 bd 4c bb 87 3c 83 a5 05 bc 74 ad c0 bc
       -0.079470426 0.016568802 -0.008157137 -0.023520209
000060 6c 76 60 3d a3 f5 e7 bc d3 9b 6f 3a f8 10 68 bd
       0.054800436 -0.02831537 0.0009140346 -0.056656808
000070 b0 21 e2 ba 69 f1 f3 3a a8 6a 7b 3c 79 d1 25 3c
       -0.0017252471 0.0018611375 0.015345253 0.010120743
000080 bc fa 9f bb c7 ae 41 bd 67 5a b9 35 7f 4a b2 3b
       -0.004882185 -0.04728582 1.3809885e-06 0.0054410095
000090 d0 d0 2e bc 23 63 fe 3b 98 2d bd bc b1 bd e8 bc
       -0.010669902 0.007763283 -0.02309303 -0.028410764
0000a0 ba 23 4e 3d 63 bf 92 bc 57 21 06 3d 52 e6 0b 3a
       0.05032704 -0.017913526 0.03274664 0.00053367496
0000b0 4a f7 8d bc 40 fc 9a b8 b9 f9 c7 3c b1 03 09 3c
       -0.01732983 -7.3902775e-05 0.02441107 0.0083626965
0000c0 32 1c 83 bd 11 25 42 3d 47 1c e0 3b cf 33 53 bc
       -0.06401862 0.04739863 0.0068393084 -0.01289077
0000d0 d6 6c bb 3b 7a 1e a9 bd 8b bd 8c 3d 22 4b 02 3d
       0.0057197614 -0.08257766 0.0687209 0.031809933
0000e0 7e 1a f4 3c cf fc 04 3d 9a 9a 53 3d 44 62 17 3d
       0.029797789 0.03246766 0.05166111 0.036958948
0000f0 cb 75 16 bd c5 1d 0d 3c 45 39 83 bc b2 ac 24 bd
       -0.03673343 0.008613055 -0.01601852 -0.040203758
000100 21 96 1d 3d a9 65 60 3c 33 71 c5 bc 9c 73 b1 3b
       0.038473252 0.013696113 -0.02410183 0.005415393
000110 1d 2f 6b 3d 6d 05 98 3c 9a 13 0b 3c af 6c 2d bd
       0.057417978 0.018557275 0.00848856 -0.042339977
000120 49 4d 1b 3d a6 ab fb 3c 60 c0 3f bd 99 96 47 bc
       0.0379155 0.030721497 -0.046814322 -0.012181901
000130 75 20 99 bd 59 b1 fa 3c 46 87 25 3d c9 c2 80 bc
       -0.07476894 0.030602144 0.04041221 -0.01571788
000140 5c d7 9d 3d 2e dd 5c bd 00 3b ef 3c 8b f7 48 3d
       0.07707092 -0.05392187 0.029202938 0.0490642
000150 59 2b 65 3d 68 5d b4 3c 96 71 6e 3c 4f 4c 7d bc
       0.055949543 0.022017196 0.014553448 -0.015460088
000160 80 ec 82 3d 0b b2 0b 3d 5e b7 21 3d 83 88 f7 bc
       0.06392765 0.034105342 0.039481513 -0.030216461
000170 8d 28 13 bd 02 0e ca b9 39 07 f1 3c 0a 9a ff bb
       -0.035927344 -0.0003853888 0.02942239 -0.0078003453
000180 e9 24 94 3c 80 c3 4c 3c 18 bf e7 3c 55 e1 dd 3c
       0.018084006 0.012497783 0.028289363 0.027084986
000190 c2 58 50 bc ac 48 fd bb 4a 81 f3 3a 38 ab 44 3d
       -0.012716474 -0.0077296104 0.001857796 0.04801485
0001a0 32 6e ee 3c 75 16 a1 bc 45 6c 6a 3d 56 0a 00 bc
       0.02910528 -0.019664029 0.05723216 -0.007814964
0001b0 44 f0 b3 bc 73 75 34 bb ea e9 2b bd 7d 47 ae bb
       -0.021965154 -0.0027535826 -0.041971125 -0.0053185807
0001c0 04 e6 ef 3c 98 82 88 3d 7b 59 3a 3d 8e b5 40 3c
       0.029284485 0.06665534 0.04549549 0.011762036
0001d0 c3 a3 8a bb fc 83 7f 3c dd 2b 4f 3c 5c f2 f6 3c
       -0.0042309477 0.015595432 0.012644735 0.030144863
0001e0 66 c6 39 bc 35 cf 2e bd 15 95 fe bc 8a d1 4b bb
       -0.011338806 -0.042678077 -0.031076947 -0.0031100237
0001f0 06 bd 77 3c 26 a2 83 3c 27 d3 90 bc ca 75 a2 bc
       0.01512075 0.01606853 -0.01767881 -0.019831557
000200 92 76 4f 3c 82 a1 99 bc 7a 4e 70 bc 18 b2 05 bd
       0.012662547 -0.01875377 -0.014667148 -0.032640547
000210 9a f2 ac bc 67 8b 4d bd 8d 88 21 3d af f0 bf b9
       -0.021111775 -0.050181773 0.039436866 -0.00036609682
000220 dc c4 a9 3b 36 c9 95 bc 1e 23 d5 bb 29 31 97 bb
       0.005180938 -0.018284421 -0.0065044304 -0.0046140146
000230 ce 4a d3 3c 69 08 71 bc 0d 3a b3 3d ca f7 8b bc
       0.025792506 -0.014711478 0.08751307 -0.017085928
000240 32 22 0b bc a1 7a e3 3c 49 0a a0 3d bd 0c 72 bd
       -0.0084920395 0.027768435 0.07814462 -0.05909418
000250 89 a1 ff bb ba 3a 2e 3d 46 0b 4f 3c a3 9f e1 bc
       -0.007801239 0.042536475 0.012636965 -0.027541941
000260 3d 70 4d bc 50 91 43 bd 13 54 0e 3d 57 37 de 3c
       -0.012538967 -0.047746003 0.03474815 0.027125997
000270 60 ba 70 3b 0f 7d 78 3a c4 4b 1b bd 20 84 06 3c
       0.0036732182 0.00094790844 -0.037914053 0.008210212
000280 e8 da 4b 3d 35 d7 18 bd 00 75 8a 3b cd c8 82 bd
       0.049769312 -0.037314612 0.0042253733 -0.06385956
000290 20 6d 36 3c 22 c8 75 bd 1f 10 58 bc 06 b0 00 bd
       0.011134416 -0.060005315 -0.013187437 -0.03141787
0002a0 e4 56 5a bc 90 04 30 bc 7d 72 38 bc 9d 0c cd 3a
       -0.01332638 -0.010743275 -0.011257765 0.0015644018
0002b0 d4 1a b8 bc 6f 6b 80 3c a9 22 4a 3c e6 21 ba 3d
       -0.02247373 0.015676228 0.012337365 0.09088497
0002c0 41 b6 79 3b 4f c2 da 3d bd 3f 83 bd c1 6d a7 bd
       0.0038103017 0.10681593 -0.064086415 -0.08175231
0002d0 8b 7e ab 3d 9f c5 25 bd b2 e0 0e bd d1 e1 82 3d
       0.083737455 -0.04047167 -0.034882255 0.06390727
0002e0 8a 3b e4 3b 6b f4 25 3c 25 d2 1b bd 0b 6c 88 3c
       0.0069651054 0.010129075 -0.038042206 0.016653081
0002f0 9c 44 85 bc 56 9a 68 3b 1a ed 2e bc 58 99 06 3d
       -0.016268067 0.0035492382 -0.010676647 0.032861084
000300 6b 36 35 bc 50 f0 c9 bc f3 1b 13 3d 87 4f f1 bb
       -0.011060338 -0.024650723 0.035915326 -0.0073642167
000310 36 bb 12 3d 86 19 fc bb 15 b3 1f 3b 99 48 72 bd
       0.03582307 -0.0076934723 0.0024368216 -0.059151266
000320 1d e0 98 bb 7c af a2 3d 43 74 85 3b 9a d1 a8 3d
       -0.0046653883 0.07943627 0.0040726974 0.08243103
000330 39 63 35 3d d7 d1 13 bd 20 3f b3 bc 45 85 5b 3c
       0.04428408 -0.03608879 -0.021880686 0.013398473
000340 0e eb 14 3d fa b6 98 3d 8b 97 71 3d 2e fd 1d 3b
       0.036356978 0.07456775 0.058982413 0.0024107206
000350 f9 dc 8b bc 31 ba 38 3b 82 28 a6 3c 1d 4a 55 bd
       -0.017073141 0.002818715 0.020282988 -0.052072633
000360 be 58 c0 3c d0 00 ae bd 1b 12 9c 3b bc 50 b1 3d
       0.023479816 -0.08496249 0.0047629005 0.08657977
000370 02 22 28 bd 68 f6 d1 bc bc ef 29 bd 14 44 fa ba
       -0.041048057 -0.025630191 -0.041488394 -0.0019093775
000380 84 fa 86 bd f1 da 77 3c 6e 03 31 3a 81 83 99 bc
       -0.06590751 0.015127883 0.0006752525 -0.018739464
000390 9f 37 3b 3c 7b 64 72 3c d0 72 c3 3a b0 3f 7c bb
       0.011426835 0.014794464 0.0014911536 -0.003849011
0003a0 7c 34 c2 3b db e3 e3 bc e7 31 46 3c 3c 67 15 bd
       0.005926667 -0.02781861 0.012096859 -0.036475405
0003b0 6d 65 19 3d 02 ac 34 3d 2e 99 01 3d 33 0e 82 bd
       0.037450243 0.044109352 0.031640224 -0.063503645
0003c0 32 44 eb bc 05 94 d9 3c 12 0b 43 3c 4a 72 aa 3c
       -0.028719041 0.026559839 0.011904495 0.02080645
0003d0 21 47 16 3c 5f 87 09 bd 32 2b 8c 3c 16 97 2d 3d
       0.009172232 -0.033576366 0.01711044 0.042380415
0003e0 e1 11 0d 3d 48 20 2a b9 9a 5f df 3c 81 47 f6 3c
       0.03444088 -0.00016224489 0.027267266 0.030063393
0003f0 ed cf 09 3d 51 97 c6 3a a7 f7 b9 3d 7f 2b b4 bb
       0.03364556 0.0015151297 0.09080439 -0.005498349
