output/model_2/topic_embeddings.safetensors (safetensors, 95320 bytes, 1 tensors)

topic_embeddings f4 [31, 768]
0.027759003 -0.004719381 -0.020601979 0.020091489 -0.03268818 0.005298613 0.0055614216 0.011438003
-0.0064516184 -0.03157869 0.00083186396 -0.009276996 0.026200589 -0.0033276163 0.012353747 -0.04572357
0.020476589 0.012525289 0.0059662894 0.0050220126 0.017391074 0.010491046 -0.0106333345 0.017869616
-0.0088068 -0.00585212 0.0023043745 -0.016180918 0.008397614 -0.022893641 -0.001884077 0.022699945
-0.00375565 0.006813938 1.8296705e-06 -0.044380836 -0.015146159 -0.009766696 -0.0030344434 -0.0046806317
0.035293806 0.010025418 -0.001682126 0.0023628515 -0.014686955 0.006000431 0.034012336 0.027109263
0.014716277 0.023285482 -0.0067842286 -0.04143573 0.0039527197 0.009309121 0.0062575564 -0.004473212
0.012259049 0.006503063 0.009145432 -0.0077771917 -0.013965328 0.009614799 -0.014293214 -0.0041678487
-0.002855516 0.005768175 -0.012579544 -0.017369838 0.008264907 0.019301984 0.02845876 -0.012722207
0.004232021 0.008197754 -0.003916314 0.019820875 -0.018382134 0.009587257 -0.0204674 0.0034958855
0.02425362 0.011273889 -0.010453255 0.00430823 0.0014798979 0.033843957 0.0033965276 -0.022627365
0.003075825 -0.010251029 0.0012355446 -0.024295652 0.01223282 0.0123885805 0.0015542683 0.015253062
-0.007524936 -0.037351426 0.015869498 -0.0506249 0.004150749 0.0076017277 -0.002101823 0.0124217095
-0.0018639561 0.02005634 0.0073276553 0.0017210176 -0.0304361 0.009187309 -0.04057407 -0.012585253
-0.03193526 0.02873732 -0.0018587713 -0.0052470975 -0.044297364 0.00096453767 0.00036581553 -0.0057037016
-0.0146629345 -0.0037726816 -0.013389205 0.007652588 -0.017676005 0.0035146342 -0.025177378 0.019853385
-0.030608444 -0.026532974 0.02883846 0.014144244 0.01427259 -0.006052697 -0.007083861 0.025795411
0.0024059766 -0.011134523 -0.02795753 -0.019186752 -0.010670355 -0.018781181 -0.01565554 -0.039637312
-0.0032045594 0.0073675686 -0.0011949635 -0.012302702 0.0025578123 0.00790981 -0.013625852 0.025576955
-0.01700662 0.0010504449 0.026446844 0.0015221911 0.029319294 0.015326249 0.015228656 -0.0025538763
0.02460766 -0.012576017 2.4684186e-05 0.0007327855 -0.012375512 -0.013524101 -0.015089163 -0.004318379
-0.0041413177 0.008517633 -0.004717163 0.032527663 -0.014451813 0.012185829 0.017453562 0.04100388
0.027084043 0.015222744 0.0046074446 0.017565226 0.01813164 0.020940004 0.0107753575 0.0020556948
-0.006841146 0.0010205101 -0.014076663 0.0068765865 -0.004094017 -0.025338184 -0.016179359 0.0014136016
0.009814974 -0.01594549 0.02173476 0.008253599 -0.010474934 0.005493668 0.014708733 -0.024908124
0.00038541396 -0.016354118 0.013700992 0.029669099 0.00977569 -0.013788979 0.0042596795 -0.00465851
-0.011418179 0.019334251 -0.0018075939 -0.007409664 -0.005590112 -0.02392022 0.00055432133 0.0153266555
0.00018972196 0.0007765356 -0.028264549 0.034753222 0.0081196595 0.0018562207 -0.006635475 0.015379784
0.0112076625 -0.0073212585 -0.009811667 0.0123230405 0.011479 0.02300938 -0.010209914 0.013498395
0.009976129 -0.0099852225 -0.0029567482 0.022145478 -0.008969972 0.0018028269 0.016506797 -0.036113534
0.011006306 -0.003233957 0.013150735 -0.023733146 0.02402497 -0.032437135 0.036118206 -0.015693631
0.021283964 -0.020752782 0.009821162 -0.0166297 0.027234115 0.0089029055 0.016161676 -0.01708724
00000000: d966 e33c 0aa5 9abb 7bc5 a8bc e896 a43c
00000010: 0be4 05bd fd9f ad3b 963c b63b 7666 3b3c
00000020: 1968 d3bb a858 01bd 7211 5a3a 8bfe 17bc
00000030: 9ea2 d63c 2314 5abb 5f67 4a3c a348 3bbd
00000040: 85be a73c df36 4d3c dd80 c33b b28f a43b
00000050: ba77 8e3c a3e2 2b3c 7037 2ebc 4d63 923c
00000060: 654a 10bc 24c3 bfbb fd04 173b d88d 84bc
00000070: 2596 093c 728b bbbc 22f3 f6ba 3cf5 b93c
00000080: 5a21 76bb 7447 df3b 0093 f535 aec8 35bd
00000090: 9827 78bc 7e04 20bc 83dd 46bb fc5f 99bb
000000a0: 3d90 103d a741 243c c87a dcba 12da 1a3b
000000b0: 8ea1 70bc 439f c43b 8550 0b3d 3f14 de3c
000000c0: 8a1c 713c 32c1 be3c 3c4e debb 83b8 29bd
000000d0: d185 813b 4985 183c 300c cd3b 0694 92bb
000000e0: 2eda 483c a517 d53b b9d6 153c d0d7 febb
000000f0: d5ce 64bc 6487 1d3c 162e 6abc 7392 88bb
00000100: 9c23 3bbb f502 bd3b 6f1a 4ebc 314b 8ebc
00000110: 8869 073c 321f 9e3c 5822 e93c ce70 50bc
00000120: c4ac 8a3b df4f 063c 6c54 80bb 635f a23c
00000130: 2196 96bc df13 1d3c 40ab a7bc 3a1b 653b
00000140: 87af c63c 1eb6 383c 2144 2bbc 0d2c 8d3b
00000150: 22f9 c13a f69f 0a3d 4798 5e3b 065d b9bc
00000160: c893 493b eff3 27bc fff1 a13a ad07 c7bc
00000170: 2a6c 483c 79f9 4a3c 97b8 cb3a fbe7 793c
00000180: bd93 f6bb cffd 18bd c000 823c 0e5c 4fbd
00000190: 0203 883b ea17 f93b bdbe 09bb 6d84 4b3c
000001a0: fd4f f4ba 324d a43c d41c f03b c593 e13a
000001b0: 2155 f9bc 5e86 163c ff30 26bd 6132 4ebc
000001c0: 8cce 02bd 876a eb3c 04a2 f3ba d8ef abbb
000001d0: 2771 35bd 07d9 7c3a eeca bf39 1ee6 babb
000001e0: ce3c 70bc 183f 77bb 655e 5bbc 90c2 fa3b
000001f0: 45cd 90bc c755 663b ca40 cebc 91a3 a23c
00000200: 8fbe fabc ae5b d9bc a23e ec3c 42bd 673c
00000210: 95d7 693c b455 c6bb bc1f e8bb e650 d33c
00000220: 97ad 1d3b 936d 36bc 3107 e5bc 892d 9dbc
00000230: b6d2 2ebc feda 99bc 0c40 80bc bc5a 22bd
00000240: 9603 52bb a56b f13b 52a0 9cba 4691 49bc
00000250: f8a0 273b 2698 013c f73e 5fbc c386 d13c
00000260: 7851 8bbc 15af 893a 0da7 d83c 4284 c73a
00000270: 042f f03c f31a 7b3c 9d81 793c ef5e 27bb
00000280: 0196 c93c a30b 4ebc e310 cf37 6718 403a
00000290: a9c2 4abc 3194 5dbc 8938 77bc 3081 8dbb
000002a0: e4b3 87bb 8b8d 0b3c 6e92 9abb ba3b 053d
000002b0: 4cc7 6cbc 12a7 473c c6fa 8e3c aff3 273d
000002c0: 5bdf dd3c d168 793c 0cfa 963b f3e4 8f3c
000002d0: ce88 943c 5f8a ab3c 208b 303c d6b8 063b
000002e0: b12b e0bb a3c2 853a cea1 66bc fd54 e13b
000002f0: 1b27 86bb 0692 cfbc 938a 84bc 9948 b93a
00000300: fcce 203c 1ea0 82bc 180d b23c 1a3a 073c
00000310: 0f9f 2bbc 3a04 b43b e6fc 703c 1f0c ccbc
00000320: 6311 ca39 12f9 85bc 207a 603c 9c0c f33c
00000330: 372a 203c 2beb 61bc c894 8b3b 6aa6 98bb
00000340: 5013 3bbc dd62 9e3c c9ec ecba c4cc f2bb
00000350: 422d b7bb 56f4 c3bc e04f 113a a71c 7b3c
00000360: 1af0 4639 6c90 4b3a 0e8b e7bc 6559 0e3d
00000370: 5208 053c 6e4c f33a 666e d9bb 7dfb 7b3c
00000380: 58a0 373c 2be7 efbb 1dc1 20bc 94e6 493c
00000390: 6a12 3c3c 2b7e bc3c 7c47 27bc 5f28 5d3c
000003a0: eb72 233c 0f99 23bc 01c6 41bb 6f6a b53c
000003b0: caf6 12bc d54c ec3a 4339 873c c9eb 13bd
000003c0: cb53 343c ccf0 53bb 2e76 573c 046c c2bc
000003d0: 04d0 c43c cddc 04bd aff0 133d ee8f 80bc
000003e0: b55b ae3c bd01 aabc f0e8 203c 023b 88bc
000003f0: 141a df3c 7edd 113c 7e65 843c 8afa 8bbc
